module attributes {gpu.container_module} {
  llvm.func @printf(!llvm.ptr, ...) -> i32
  llvm.mlir.global internal constant @str0("Output match = %d\0A\00") {addr_space = 0 : i32}
  llvm.mlir.global internal constant @str1("Val = %f:%f\0A\00") {addr_space = 0 : i32}
  llvm.mlir.global internal constant @str2("Input = %d:%d\0A\00") {addr_space = 0 : i32}
  llvm.func @mgpuStreamCreate() -> !llvm.ptr
  llvm.func @mgpuStreamDestroy(!llvm.ptr)
  llvm.func @mgpuEventSynchronize(!llvm.ptr)
  llvm.func @mgpuStreamSynchronize(!llvm.ptr)
  llvm.func @mgpuStreamWaitEvent(!llvm.ptr, !llvm.ptr)
  llvm.func @mgpuEventCreate() -> !llvm.ptr
  llvm.func @mgpuEventDestroy(!llvm.ptr)
  llvm.func @mgpuEventRecord(!llvm.ptr, !llvm.ptr)
  llvm.func @mgpuEventElapsedTime(!llvm.ptr, !llvm.ptr, !llvm.ptr) -> i32
  llvm.func @mgpuCheckOutput(!llvm.ptr, !llvm.ptr, !llvm.ptr, i64, i64)
  llvm.func @mgpuInit(!llvm.ptr, !llvm.ptr, i64, i64)
  func.func @print_time(%arg0: f32) {
    return
  }
  func.func @main() {
    call @test_matmul() : () -> ()
    return
  }
  func.func @test_matmul() {
    %c4096_i64 = arith.constant 4096 : i64
    %c1_i32 = arith.constant 1 : i32
    %alloc = memref.alloc() : memref<4096x4096xf32>
    %alloc_0 = memref.alloc() : memref<4096x4096xf32>
    %alloc_1 = memref.alloc() : memref<4096x4096xf32>
    %intptr = memref.extract_aligned_pointer_as_index %alloc : memref<4096x4096xf32> -> index
    %intptr_2 = memref.extract_aligned_pointer_as_index %alloc_0 : memref<4096x4096xf32> -> index
    %0 = arith.index_cast %intptr : index to i64
    %1 = arith.index_cast %intptr_2 : index to i64
    %2 = llvm.inttoptr %0 : i64 to !llvm.ptr
    %3 = llvm.inttoptr %1 : i64 to !llvm.ptr
    llvm.call @mgpuInit(%2, %3, %c4096_i64, %c4096_i64) : (!llvm.ptr, !llvm.ptr, i64, i64) -> ()
    %memref = gpu.alloc  () : memref<4096x4096xf32>
    gpu.memcpy  %memref, %alloc : memref<4096x4096xf32>, memref<4096x4096xf32>
    %memref_3 = gpu.alloc  () : memref<4096x4096xf32>
    gpu.memcpy  %memref_3, %alloc_0 : memref<4096x4096xf32>, memref<4096x4096xf32>
    %memref_4 = gpu.alloc  () : memref<4096x4096xf32>
    gpu.memcpy  %memref_4, %alloc_1 : memref<4096x4096xf32>, memref<4096x4096xf32>
    %4 = llvm.call @mgpuStreamCreate() : () -> !llvm.ptr
    %5 = llvm.call @mgpuEventCreate() : () -> !llvm.ptr
    %6 = llvm.call @mgpuEventCreate() : () -> !llvm.ptr
    llvm.call @mgpuEventRecord(%5, %4) : (!llvm.ptr, !llvm.ptr) -> ()
    call @forward(%memref, %memref_3, %memref_4) : (memref<4096x4096xf32>, memref<4096x4096xf32>, memref<4096x4096xf32>) -> ()
    llvm.call @mgpuEventRecord(%6, %4) : (!llvm.ptr, !llvm.ptr) -> ()
    llvm.call @mgpuEventSynchronize(%6) : (!llvm.ptr) -> ()
    %7 = llvm.alloca %c1_i32 x f32 : (i32) -> !llvm.ptr
    %8 = llvm.call @mgpuEventElapsedTime(%7, %5, %6) : (!llvm.ptr, !llvm.ptr, !llvm.ptr) -> i32
    llvm.call @mgpuStreamDestroy(%4) : (!llvm.ptr) -> ()
    llvm.call @mgpuEventDestroy(%5) : (!llvm.ptr) -> ()
    llvm.call @mgpuEventDestroy(%6) : (!llvm.ptr) -> ()
    gpu.memcpy  %alloc_1, %memref_4 : memref<4096x4096xf32>, memref<4096x4096xf32>
    %intptr_5 = memref.extract_aligned_pointer_as_index %alloc_1 : memref<4096x4096xf32> -> index
    %intptr_6 = memref.extract_aligned_pointer_as_index %alloc : memref<4096x4096xf32> -> index
    %intptr_7 = memref.extract_aligned_pointer_as_index %alloc_0 : memref<4096x4096xf32> -> index
    %9 = arith.index_cast %intptr_5 : index to i64
    %10 = arith.index_cast %intptr_6 : index to i64
    %11 = arith.index_cast %intptr_7 : index to i64
    %12 = llvm.inttoptr %9 : i64 to !llvm.ptr
    %13 = llvm.inttoptr %10 : i64 to !llvm.ptr
    %14 = llvm.inttoptr %11 : i64 to !llvm.ptr
    llvm.call @mgpuCheckOutput(%12, %13, %14, %c4096_i64, %c4096_i64) : (!llvm.ptr, !llvm.ptr, !llvm.ptr, i64, i64) -> ()
    return
  }
  func.func @forward(%arg0: memref<4096x4096xf32>, %arg1: memref<4096x4096xf32>, %arg2: memref<4096x4096xf32>) {
    %c32 = arith.constant 32 : index
    %c1 = arith.constant 1 : index
    %c256 = arith.constant 256 : index
    gpu.launch_func  @forward_module::@forward_module blocks in (%c32, %c32, %c1) threads in (%c256, %c1, %c1)  args(%arg0 : memref<4096x4096xf32>, %arg1 : memref<4096x4096xf32>, %arg2 : memref<4096x4096xf32>)
    return
  }
  gpu.module @forward_module {
    gpu.func @forward_module(%arg0: memref<4096x4096xf32>, %arg1: memref<4096x4096xf32>, %arg2: memref<4096x4096xf32>) workgroup(%arg3 : memref<128x8xf32, 3>, %arg4 : memref<8x128xf32, 3>) private(%arg5 : memref<8xf32, 5>, %arg6 : memref<8xf32, 5>, %arg7 : memref<64xf32, 5>) kernel attributes {known_block_size = array<i32: 256, 1, 1>, known_grid_size = array<i32: 32, 32, 1>} {
      %c8 = arith.constant 8 : index
      %c16 = arith.constant 16 : index
      %c1024 = arith.constant 1024 : index
      %cst = arith.constant 0.000000e+00 : f32
      %c64 = arith.constant 64 : index
      %c4096 = arith.constant 4096 : index
      %c0 = arith.constant 0 : index
      %c1 = arith.constant 1 : index
      %c128 = arith.constant 128 : index
      %block_id_x = gpu.block_id x
      %block_id_y = gpu.block_id y
      %block_id_z = gpu.block_id z
      %thread_id_x = gpu.thread_id x
      %thread_id_y = gpu.thread_id y
      %thread_id_z = gpu.thread_id z
      %grid_dim_x = gpu.grid_dim x
      %grid_dim_y = gpu.grid_dim y
      %grid_dim_z = gpu.grid_dim z
      %block_dim_x = gpu.block_dim x
      %block_dim_y = gpu.block_dim y
      %block_dim_z = gpu.block_dim z
      %0 = arith.muli %block_id_y, %c128 overflow<nsw> : index
      %1 = arith.muli %block_id_x, %c128 overflow<nsw> : index
      cf.br ^bb1(%c0 : index)
    ^bb1(%2: index):  // 2 preds: ^bb0, ^bb2
      %3 = arith.cmpi slt, %2, %c64 : index
      cf.cond_br %3, ^bb2, ^bb3
    ^bb2:  // pred: ^bb1
      memref.store %cst, %arg7[%2] : memref<64xf32, 5>
      %4 = arith.addi %2, %c1 : index
      cf.br ^bb1(%4 : index)
    ^bb3:  // pred: ^bb1
      cf.br ^bb4(%c0 : index)
    ^bb4(%5: index):  // 2 preds: ^bb3, ^bb26
      %6 = arith.cmpi slt, %5, %c4096 : index
      cf.cond_br %6, ^bb5, ^bb27
    ^bb5:  // pred: ^bb4
      %thread_id_x_0 = gpu.thread_id x
      %block_dim_x_1 = gpu.block_dim x
      cf.br ^bb6(%thread_id_x_0 : index)
    ^bb6(%7: index):  // 2 preds: ^bb5, ^bb7
      %8 = arith.cmpi slt, %7, %c1024 : index
      cf.cond_br %8, ^bb7, ^bb8
    ^bb7:  // pred: ^bb6
      %9 = arith.remsi %7, %c8 : index
      %10 = arith.divsi %7, %c8 : index
      %11 = arith.remsi %10, %c128 : index
      %12 = arith.addi %0, %11 : index
      %13 = arith.addi %5, %9 : index
      %14 = memref.load %arg0[%12, %13] : memref<4096x4096xf32>
      memref.store %14, %arg3[%11, %9] : memref<128x8xf32, 3>
      %15 = arith.addi %7, %block_dim_x_1 : index
      cf.br ^bb6(%15 : index)
    ^bb8:  // pred: ^bb6
      gpu.barrier
      %thread_id_x_2 = gpu.thread_id x
      %block_dim_x_3 = gpu.block_dim x
      cf.br ^bb9(%thread_id_x_2 : index)
    ^bb9(%16: index):  // 2 preds: ^bb8, ^bb10
      %17 = arith.cmpi slt, %16, %c1024 : index
      cf.cond_br %17, ^bb10, ^bb11
    ^bb10:  // pred: ^bb9
      %18 = arith.remsi %16, %c128 : index
      %19 = arith.divsi %16, %c128 : index
      %20 = arith.remsi %19, %c8 : index
      %21 = arith.addi %5, %20 : index
      %22 = arith.addi %1, %18 : index
      %23 = memref.load %arg1[%21, %22] : memref<4096x4096xf32>
      memref.store %23, %arg4[%20, %18] : memref<8x128xf32, 3>
      %24 = arith.addi %16, %block_dim_x_3 : index
      cf.br ^bb9(%24 : index)
    ^bb11:  // pred: ^bb9
      gpu.barrier
      gpu.barrier
      %thread_id_x_4 = gpu.thread_id x
      %25 = arith.remsi %thread_id_x_4, %c16 : index
      %26 = arith.divsi %thread_id_x_4, %c16 : index
      %27 = arith.muli %25, %c8 : index
      %28 = arith.muli %26, %c8 : index
      cf.br ^bb12(%c0 : index)
    ^bb12(%29: index):  // 2 preds: ^bb11, ^bb25
      %30 = arith.cmpi slt, %29, %c8 : index
      cf.cond_br %30, ^bb13, ^bb26
    ^bb13:  // pred: ^bb12
      cf.br ^bb14(%c0 : index)
    ^bb14(%31: index):  // 2 preds: ^bb13, ^bb15
      %32 = arith.cmpi slt, %31, %c8 : index
      cf.cond_br %32, ^bb15, ^bb16
    ^bb15:  // pred: ^bb14
      %33 = arith.muli %27, %c8 : index
      %34 = arith.addi %33, %29 : index
      %35 = arith.muli %31, %c8 : index
      %36 = arith.addi %34, %35 : index
      %37 = arith.remsi %36, %c8 : index
      %38 = arith.divsi %36, %c8 : index
      %39 = arith.remsi %38, %c128 : index
      %40 = memref.load %arg3[%39, %37] : memref<128x8xf32, 3>
      memref.store %40, %arg5[%31] : memref<8xf32, 5>
      %41 = arith.addi %31, %c1 : index
      cf.br ^bb14(%41 : index)
    ^bb16:  // pred: ^bb14
      cf.br ^bb17(%c0 : index)
    ^bb17(%42: index):  // 2 preds: ^bb16, ^bb18
      %43 = arith.cmpi slt, %42, %c8 : index
      cf.cond_br %43, ^bb18, ^bb19
    ^bb18:  // pred: ^bb17
      %44 = arith.muli %29, %c128 : index
      %45 = arith.addi %44, %28 : index
      %46 = arith.addi %45, %42 : index
      %47 = arith.remsi %46, %c128 : index
      %48 = arith.divsi %46, %c128 : index
      %49 = arith.remsi %48, %c8 : index
      %50 = memref.load %arg4[%49, %47] : memref<8x128xf32, 3>
      memref.store %50, %arg6[%42] : memref<8xf32, 5>
      %51 = arith.addi %42, %c1 : index
      cf.br ^bb17(%51 : index)
    ^bb19:  // pred: ^bb17
      cf.br ^bb20(%c0 : index)
    ^bb20(%52: index):  // 2 preds: ^bb19, ^bb24
      %53 = arith.cmpi slt, %52, %c8 : index
      cf.cond_br %53, ^bb21, ^bb25
    ^bb21:  // pred: ^bb20
      cf.br ^bb22(%c0 : index)
    ^bb22(%54: index):  // 2 preds: ^bb21, ^bb23
      %55 = arith.cmpi slt, %54, %c8 : index
      cf.cond_br %55, ^bb23, ^bb24
    ^bb23:  // pred: ^bb22
      %56 = arith.muli %52, %c8 : index
      %57 = arith.addi %56, %54 : index
      %58 = memref.load %arg5[%52] : memref<8xf32, 5>
      %59 = memref.load %arg6[%54] : memref<8xf32, 5>
      %60 = memref.load %arg7[%57] : memref<64xf32, 5>
      %61 = arith.mulf %58, %59 : f32
      %62 = arith.addf %60, %61 : f32
      memref.store %62, %arg7[%57] : memref<64xf32, 5>
      %63 = arith.addi %54, %c1 : index
      cf.br ^bb22(%63 : index)
    ^bb24:  // pred: ^bb22
      %64 = arith.addi %52, %c1 : index
      cf.br ^bb20(%64 : index)
    ^bb25:  // pred: ^bb20
      %65 = arith.addi %29, %c1 : index
      cf.br ^bb12(%65 : index)
    ^bb26:  // pred: ^bb12
      gpu.barrier
      %66 = arith.addi %5, %c8 : index
      cf.br ^bb4(%66 : index)
    ^bb27:  // pred: ^bb4
      %thread_id_x_5 = gpu.thread_id x
      %67 = arith.remsi %thread_id_x_5, %c16 : index
      %68 = arith.divsi %thread_id_x_5, %c16 : index
      %69 = arith.muli %67, %c8 : index
      %70 = arith.muli %68, %c8 : index
      %71 = arith.addi %0, %69 : index
      %72 = arith.addi %1, %70 : index
      cf.br ^bb28(%c0 : index)
    ^bb28(%73: index):  // 2 preds: ^bb27, ^bb32
      %74 = arith.cmpi slt, %73, %c8 : index
      cf.cond_br %74, ^bb29, ^bb33
    ^bb29:  // pred: ^bb28
      cf.br ^bb30(%c0 : index)
    ^bb30(%75: index):  // 2 preds: ^bb29, ^bb31
      %76 = arith.cmpi slt, %75, %c8 : index
      cf.cond_br %76, ^bb31, ^bb32
    ^bb31:  // pred: ^bb30
      %77 = arith.muli %73, %c8 : index
      %78 = arith.addi %77, %75 : index
      %79 = arith.remsi %78, %c64 : index
      %80 = arith.addi %71, %73 : index
      %81 = arith.addi %72, %75 : index
      %82 = memref.load %arg7[%79] : memref<64xf32, 5>
      memref.store %82, %arg2[%80, %81] : memref<4096x4096xf32>
      %83 = arith.addi %75, %c1 : index
      cf.br ^bb30(%83 : index)
    ^bb32:  // pred: ^bb30
      %84 = arith.addi %73, %c1 : index
      cf.br ^bb28(%84 : index)
    ^bb33:  // pred: ^bb28
      gpu.return
    }
  }
}

